model/model.pth (torch, 20883 bytes, 4 tensors)

linear1.weight f4 [256, 15]
000000 5b f7 65 be c7 9a 5d 3d 58 4c d6 bd 0d 38 72 3e
       -0.2245764 0.054102685 -0.1046378 0.23654194
000010 91 2b 9d bd 9f fd 45 bd 18 51 40 3e 4f 23 f7 bd
       -0.07674325 -0.048337575 0.18780935 -0.120672815
000020 df 7e cb bd f9 42 46 be 3c 37 8d 3c 70 0e 59 3e
       -0.09936308 -0.19361486 0.017238252 0.21196914
000030 64 31 f0 bd 46 00 e2 3d a9 55 7c bd 3d cb 33 be
       -0.117281705 0.110352084 -0.06160513 -0.17557998
000040 84 cf 3e bd 13 b9 5c be e8 58 18 3e 6d 3a cb bd
       -0.04658462 -0.21554975 0.14877665 -0.09923253
000050 6c d4 65 be 30 e6 77 3e 72 01 29 3d ea f5 5c 3c
       -0.22444314 0.24208903 0.041261144 0.013486365
000060 d2 ea b9 3d e7 db 24 be 61 ce 8d bd b1 82 46 3c
       0.090779915 -0.16099511 -0.06924129 0.01211612
000070 51 e8 64 3e eb 8b c5 bd 68 38 62 be e2 e1 46 bd
       0.22354247 -0.09645828 -0.2209183 -0.048555262
000080 be 25 8c 3c 37 53 58 3d 60 83 d9 3d ee 28 80 be
       0.01710784 0.052813735 0.10620761 -0.25031227
000090 3f 00 18 bb 66 32 92 bd 03 52 3c 3e 13 9b a0 bc
       -0.0023193506 -0.07138519 0.1839066 -0.019605195
0000a0 03 4d 62 3e 22 14 09 3e 83 71 33 3e 88 38 e2 3d
       0.2209969 0.13386586 0.1752377 0.11045939
0000b0 7a 6c 30 3e db 0e 05 3e 96 4a 7b 3e cc 44 74 bd
       0.1722888 0.12993948 0.24540171 -0.059635922
0000c0 e3 f7 36 3d d7 62 2b 3e 49 86 81 3d 23 5e 0a 3e
       0.044669997 0.16736923 0.06324441 0.13512473
0000d0 8a 4e d6 bd be 2c 57 3e 88 f1 61 3e 69 a5 b0 bd
       -0.10464199 0.21013162 0.22064793 -0.086252995
0000e0 f3 31 c6 bd 41 70 ea bd 26 e8 35 be a5 cd b5 3d
       -0.09677496 -0.11447192 -0.17764339 0.08877114
0000f0 90 b0 a0 3d 5e 3a 4d be fe a3 ee 3d 8d 42 59 be
       0.078461766 -0.20041797 0.11652373 -0.21216793
000100 a6 5f 4d 3e 40 26 22 3e 58 a6 90 bd 59 85 2a be
       0.20056018 0.15834904 -0.070629776 -0.1665243
000110 16 9c 69 3e a0 c2 29 be 96 33 84 bd 9c 72 29 3e
       0.22813448 -0.1657815 -0.06455152 0.16547626
000120 25 89 42 be ea de 53 be 04 59 a9 3c d4 ec e4 3d
       -0.18997629 -0.20690504 0.020672329 0.11177984
000130 4c 22 88 bd ff 50 79 be 5b 0f 45 3e c8 98 61 3e
       -0.066471666 -0.24347304 0.19244139 0.22030938
000140 13 59 68 be 77 f1 bd 3d 95 af 72 3d 1f de 1b 3e
       -0.22690229 0.092745714 0.05924948 0.15221451
000150 d1 d2 e4 bb e3 d2 fc 3d 55 72 5b 3c 3d be 64 be
       -0.006983139 0.12344911 0.013393958 -0.22338195
000160 94 59 6a be a0 f3 0e 3e a5 9f 31 3e 05 76 48 3e
       -0.22885734 0.13960123 0.17346056 0.19576271
000170 90 56 5b be 32 d1 f0 3d 90 1f 81 3b c1 ef af bd
       -0.2141974 0.11758651 0.00394053 -0.08590651
000180 99 1e c5 3d 2f 15 77 be c8 3e 90 bd 3e 44 06 3d
       0.09624977 -0.24129175 -0.070432246 0.032779925
000190 b9 68 4b 3d 1a 35 19 3c 62 a7 0f 3e 4c dd 18 3e
       0.04966042 0.009351039 0.14028695 0.14928168
0001a0 31 e2 50 3e 5a 99 41 be c9 ca e6 3d 37 a9 9b 3d
       0.20398785 -0.18906155 0.11269147 0.076006345
0001b0 7b 59 3d 3e 9a 35 0b be 62 da 08 3e 22 c1 d5 3d
       0.18491165 -0.13594666 0.13364556 0.10437228
0001c0 3b 5e 25 3d b1 a4 c5 bd 9d e1 77 3e 58 0c da bd
       0.04037307 -0.09650553 0.24207158 -0.10646886
0001d0 36 60 30 3e e5 d9 ff 3c 5f 5f c2 3d 8c 43 7f be
       0.17224202 0.03123183 0.09490847 -0.24928111
0001e0 16 8a 45 3d af 57 ee bd 70 63 99 bd 93 ab d4 3d
       0.048227392 -0.11637818 -0.07489669 0.10384288
0001f0 13 d9 82 bd c1 bd 02 3e 76 b9 11 3e 62 e0 2b 3e
       -0.0638906 0.12767698 0.14230904 0.16784814
000200 a4 9d 59 be ca 40 0f be 33 fc 24 3e 64 6b 0b bd
       -0.21251541 -0.13989559 0.16111831 -0.034037963
000210 2d c9 6e be 02 a6 a4 3d 04 e1 2e 3e 3b 07 60 3d
       -0.2331893 0.08039476 0.17078024 0.054694396
000220 4a 7c 5d be 73 60 3a bd 63 0e 2d 3e 98 59 7c be
       -0.21629444 -0.045502137 0.1690002 -0.24643552
000230 7b 9a 1d be db 7c bd bd d8 42 79 bd 6f 52 ab bd
       -0.15390961 -0.0925233 -0.060854763 -0.08365332
000240 7f c4 3b be 3f 90 6c 3e cd 2b 73 3e 2b 24 ec bd
       -0.18336676 0.231019 0.23747177 -0.11530336
000250 3a af 4a 3e 64 42 56 3d 41 b0 55 3d cb 47 71 be
       0.19793406 0.05230941 0.052170042 -0.23562543
000260 9c fc 7b be 0f d9 8a bd 97 b9 e9 3c 5e ad 6f be
       -0.24608082 -0.06779682 0.028530879 -0.23405978
000270 d4 f8 60 3e 13 18 93 3d 71 60 5d be 31 dc 40 bd
       0.2196992 0.07182326 -0.2161882 -0.04708499
000280 13 6f 11 3e d6 59 93 bd 40 08 d9 3d d1 03 22 3e
       0.14202528 -0.07194869 0.10597277 0.15821768
000290 db a7 57 3d 05 3a 3f 3d 2f 87 c0 bd 6c e3 84 3d
       0.052650314 0.04668619 -0.09400784 0.0648869
0002a0 5e 81 27 be a9 8f 20 3e 94 6f 2c be a8 b0 0c 3d
       -0.16357943 0.15679802 -0.16839439 0.03434816
0002b0 47 5a 77 be 19 4d 23 3e 5d 47 88 be e0 a5 6e bc
       -0.24155532 0.15947379 -0.26616946 -0.014565915
0002c0 24 82 6e 3d ee 00 97 3d 14 81 17 be c4 25 20 3e
       0.05822958 0.07373224 -0.14795333 0.15639406
0002d0 03 17 36 3e e7 83 f1 3d 40 f5 a5 3d 9d f5 be bd
       0.17782216 0.117927365 0.08103418 -0.09324191
0002e0 a0 cd 7e 3e cc 7e b6 3d 98 04 3a be 90 84 26 bd
       0.24883127 0.08910903 -0.18165815 -0.040653765
0002f0 8e 51 71 be fa e0 77 3d 89 3a 5e 3e bc 54 ba 3c
       -0.23566267 0.06051729 0.21702017 0.022745483
000300 0e 45 53 3e a6 a2 0c 3e 07 86 2a be 20 ee 0d 3e
       0.20631811 0.1373392 -0.1665269 0.13860369
000310 53 80 06 be 08 5e fd bd 08 8b ab 3c e9 8b 24 3e
       -0.1313489 -0.12371451 0.020940319 0.16068996
000320 55 bf 48 be 70 8d 87 bd 40 6f 7e 3e 69 73 62 be
       -0.19604237 -0.06618774 0.24847126 -0.22114338
000330 3c 2d 01 3e 78 cf fb bd fe 10 83 be d4 ad 9e bd
       0.12614912 -0.12295431 -0.25598902 -0.07747999
000340 16 ff 95 3d 71 c7 3b be d8 ec 33 3e 83 2e bf bd
       0.073240444 -0.183378 0.17570817 -0.09335043
000350 99 61 6a be 8f ec 7d be a5 ac c2 3c 8b 23 f8 3d
       -0.22888793 -0.24797271 0.023763964 0.12116154
000360 9b 63 3a 3e a5 fe 3e 3e 1b 1e a8 bc 70 6a ec bd
       0.18202059 0.18651827 -0.020522168 -0.11543739
000370 8e bc b1 bd 23 47 29 3e 91 20 08 3e cf a1 33 bc
       -0.08678542 0.16531043 0.13293673 -0.010963871
000380 6a 3b da bd 2a b1 0f be f6 75 0d 3e e3 d0 1a 3e
       -0.106558636 -0.14032426 0.1381453 0.15118746
000390 55 43 46 be 79 fa 5d be 47 04 80 bd 4e 50 80 3d
       -0.19361623 -0.21677579 -0.06250816 0.06265317
0003a0 22 7e af 3d 84 ef 80 bc e1 28 46 be 57 92 86 be
       0.0856898 -0.01573921 -0.19351532 -0.26283523
0003b0 65 5d 07 be 6d d6 54 3e 58 f4 e6 bd 84 bd 43 be
       -0.13219221 0.20784922 -0.112770736 -0.19115263
0003c0 79 ae 1e 3e ae c6 09 be 67 8e bf 3d a4 2f 9a 3d
       0.15496244 -0.13454697 0.09353333 0.07528618
0003d0 d2 1b ed 3d 9a a6 9b bd 1b 5a 4e 3c 2d 58 ba 3d
       0.11577572 -0.07600136 0.012594725 0.090988494
0003e0 51 83 ac bd 73 35 bb 3c 16 9e cb bd 39 da 03 3e
       -0.08423484 0.022852635 -0.09942262 0.12876214
0003f0 c3 a6 5a be 34 00 c2 3d 05 b7 3b bd 38 4b 78 be
       -0.21352677 0.09472695 -0.045828838 -0.24247444

linear1.bias f4 [256]
000000 53 99 1f 3c 54 b3 6a 3e 42 0b 3d 3e d3 5f 23 3c
       0.009741145 0.22919971 0.18461326 0.009971577
000010 b5 21 0b 3c 7d 5a f4 bd 32 95 6c 3e 0c 52 8d be
       0.008491923 -0.11931322 0.23103788 -0.2760166
000020 4a c3 45 3e 5e 96 6a 3e 63 eb da bd 57 8b c6 bc
       0.19312778 0.22908923 -0.10689428 -0.024236364
000030 09 1d c6 bd e3 2d 99 bd e4 64 5a bd a1 86 6a 3d
       -0.09673507 -0.07479455 -0.053318873 0.0572573
000040 ff b6 40 3e 16 45 11 3e 26 03 88 be 01 83 4f be
       0.18819807 0.1418651 -0.26564902 -0.20264818
000050 b3 3c 5e be cb d6 49 3d 26 b4 75 3e 51 67 80 3e
       -0.21702842 0.04927711 0.23994502 0.25078824
000060 8d 43 12 3e 30 40 2c be 2a 33 49 be 61 7f 0a 3e
       0.14283581 -0.1682136 -0.19648424 0.13525154
000070 4e af a2 3d 70 cc 9b bd f4 52 78 be 10 7e fa bc
       0.07943593 -0.07607353 -0.24250394 -0.03057769
000080 11 14 d2 bd a7 5e 9c 3d f2 69 8f be 99 3f d4 3d
       -0.102577336 0.07635241 -0.28010517 0.10363693
000090 ba 1e 3f be 86 64 80 be 16 c6 46 3e 88 de cb 3d
       -0.18664065 -0.25076693 0.19411501 0.09954554
0000a0 b0 23 59 3e 25 02 5a be 36 97 02 be 68 d6 60 3e
       0.2120502 -0.2128988 -0.12752995 0.2195679
0000b0 10 1c 43 be 4a 65 6e be 2f 12 43 be fd a5 2f 3e
       -0.19053674 -0.23280826 -0.19049905 0.17153163
0000c0 ae 59 12 bd 8d a3 b5 3d f9 cb 93 3d 18 0f a1 bd
       -0.035730056 0.088690855 0.07216639 -0.07864207
0000d0 db c8 79 be 23 ec 80 bd be 91 01 be 0a df ec bd
       -0.24393027 -0.062950395 -0.12653252 -0.11565979
0000e0 63 2c 89 3d 24 e4 68 bd 2e 04 1c 3d f2 72 b2 bd
       0.06697919 -0.056858197 0.038089924 -0.0871333
0000f0 7c 63 33 3d 06 d1 27 bd 73 47 c6 bd cb 0b 31 be
       0.043796048 -0.040970825 -0.096815966 -0.17289655
000100 2a d8 d2 bd 35 49 03 be 79 18 14 3e db 80 b2 3d
       -0.10295136 -0.12820895 0.1446246 0.087159835
000110 ed b6 44 bd 97 d2 a3 bd 4c 93 68 be e2 72 4f be
       -0.048026014 -0.07999151 -0.2271244 -0.20258668
000120 76 48 26 3b 0a fd c4 3d 2f 7c 73 bd 61 7a a9 bd
       0.002537278 0.09618576 -0.059444603 -0.08275295
000130 a2 bd 80 be a7 5d 06 be 80 84 71 3e 5e 1e 1e 3d
       -0.25144678 -0.13121663 0.23585701 0.03860318
000140 36 11 fc 3d 79 b6 76 3e 4c 95 52 3e 39 f6 3f 3e
       0.1230797 0.24093045 0.20564765 0.1874627
000150 25 ee 57 be 76 80 e6 bd b4 24 a3 bd 60 6b de bc
       -0.21086939 -0.11254971 -0.07965985 -0.02715081
000160 46 63 54 be 3d d0 56 bc ce 02 02 be 87 5b 67 be
       -0.20740995 -0.013111171 -0.12696382 -0.22593509
000170 5e 6e 8d be d9 e9 34 be ff 7c 0e be fe 03 08 3e
       -0.27623266 -0.17667331 -0.1391487 0.13282773
000180 f1 0b 5a 3d ac 8d 39 be 6c 92 b0 3d 1d df 86 3d
       0.053234044 -0.1812045 0.08621678 0.06585524
000190 26 4c a0 3d 57 7c 39 be 0e c1 82 be 08 1c 64 3e
       0.07827024 -0.18113838 -0.25537914 0.22276318
0001a0 df 64 d7 bd b7 71 39 3e 91 fa b5 3d ce cf 23 be
       -0.105172865 0.18109785 0.088856824 -0.1599724
0001b0 80 61 54 be a2 68 df 3d 7f 83 1f 3d d0 7a 27 be
       -0.20740318 0.10908629 0.038943764 -0.16355443
0001c0 e9 ac 04 3e 54 32 26 3e ce 38 64 be d3 4e 58 be
       0.12956585 0.16230136 -0.22287294 -0.21123819
0001d0 48 42 0e 3e 61 6f f4 bd e0 fe 44 3d ff f0 ac 3d
       0.13892472 -0.11935306 0.04809463 0.08444404
0001e0 77 53 99 bd 97 67 37 3e fd ad 2d 3e 72 80 75 be
       -0.07486623 0.1791061 0.16960903 -0.23974779
0001f0 d0 da 83 be 0d 9d 96 bd 04 46 44 be c1 cd 2d 3e
       -0.25752878 -0.07354174 -0.19167334 0.1697302
000200 09 84 52 3e fd 2b 5a be bd de a6 3d 87 7b 72 3e
       0.2055818 -0.21305843 0.08147953 0.23679934
000210 fd af 47 be 12 dd 9a 3d 77 1d e2 bd 89 54 83 bd
       -0.19500728 0.07561697 -0.11040776 -0.06412608
000220 eb 69 86 be 9d fb be bc 40 03 11 3e 89 fa c0 bd
       -0.26252684 -0.023313338 0.14161396 -0.09422786
000230 09 1d 17 3e 4d 20 77 be 9c ad e0 3d e2 72 3d be
       0.1475717 -0.24133416 0.10970613 -0.18500856
000240 af 5d f7 bd 93 0c 2b be e9 f8 2f 3e 4b e5 53 bd
       -0.120784156 -0.16704015 0.17184795 -0.051732343
000250 d2 91 98 bd fd cd 42 3c 82 8a 12 be f5 95 02 bd
       -0.07449688 0.011889932 -0.14310649 -0.03188129
000260 b1 56 db 3d 2d c1 5d 3d 8a 51 a7 3b 44 f9 18 3e
       0.107098944 0.054139305 0.0051061558 0.14938837
000270 8b 9f d2 3d 50 f9 28 be 7a f4 cf bb 85 da 1a bd
       0.10284337 -0.16501355 -0.0063462825 -0.037806053
000280 f4 fe 6c 3e 3c 4e 71 be 22 a4 6e be 13 7e 79 3b
       0.23144132 -0.23565 -0.23304799 0.003806953
000290 2f 0c 71 3e 60 d6 36 bd 82 44 21 bd 81 f1 19 3d
       0.23539804 -0.044638038 -0.039371975 0.03758383
0002a0 e2 bd fb bd 51 71 80 be e2 a7 36 be 3e b1 04 be
       -0.12292077 -0.25086454 -0.1783748 -0.12958238
0002b0 a5 4a 8a be 26 31 3f 3d d5 9d f2 bd e5 f8 18 3e
       -0.27010074 0.04667773 -0.1184651 0.14938696
0002c0 55 0b 62 3e 49 78 30 bd b2 c5 9d bc 8d 62 73 be
       0.22074635 -0.043083463 -0.019259308 -0.23768063
0002d0 96 90 b0 bd 65 b4 1f bd 96 48 e6 3d 2b d4 17 be
       -0.086213276 -0.038990397 0.112443134 -0.1482703
0002e0 ed d9 47 be 95 26 c4 3d 6b 05 14 be 16 f3 dc 3d
       -0.19516726 0.095776714 -0.14455192 0.107885525
0002f0 25 ac b3 3d b8 4e f6 3d 1a 16 33 3e b7 15 c6 ba
       0.08773068 0.12026733 0.174889 -0.0015112673
000300 b9 32 82 be f1 c2 8e bd 46 19 72 be 4c 7d 30 bd
       -0.25429323 -0.06970776 -0.23642454 -0.043088242
000310 b4 04 29 be ec 6e 89 be ea ff 8f 3d 14 b0 18 3e
       -0.165057 -0.2684244 0.070312336 0.14910918
000320 2e 01 87 3d 6d b2 e2 bd da df 7a 3d 97 e6 45 bd
       0.06592022 -0.11069188 0.061248638 -0.04831561
000330 35 bd aa 3d d4 4f 21 3e 34 56 0e 3e 8c f1 b3 3d
       0.083368696 0.15753108 0.13900071 0.08786306
000340 d3 75 4d 3e 08 a9 26 be df d7 ea 3d 05 bf fe bc
       0.20064478 -0.16275418 0.114669554 -0.031096945
000350 af c4 09 3e f1 7c fa 3c e0 81 65 3e 49 ff 56 3e
       0.13453935 0.030577155 0.22412825 0.20995821
000360 42 46 a4 bd 20 a6 4a ba 3d 99 bc bd aa 4a 7b be
       -0.08021213 -0.0007730443 -0.092089154 -0.24540201
000370 ac c3 dd b9 0e a4 fa bd bd 8e 11 be 3b 8d 73 3e
       -0.00042298192 -0.12238322 -0.14214607 0.23784344
000380 85 d0 78 3e 67 2c 40 be bd 4a 45 3e 49 60 ad 3a
       0.24298294 -0.18766938 0.19266792 0.0013227548
000390 ab b0 90 be f6 d7 77 bd dc bf fe 3c 9b 71 1d be
       -0.28259787 -0.06050869 0.031097345 -0.15375368
0003a0 cb a9 19 3e 97 25 a3 bd 77 61 6b 3d 55 d5 50 be
       0.15006177 -0.07966154 0.057465997 -0.2039388
0003b0 58 38 3c 3e 46 47 9f bc 88 32 57 3e c3 12 a0 3c
       0.18380868 -0.019443166 0.2101537 0.019540196
0003c0 11 59 fd 3d 79 de 3c bd 6e 98 a3 bb f4 cb 1f 3e
       0.12370504 -0.046110604 -0.0049925363 0.15605146
0003d0 89 4f e7 bb 3a 6b 4f be 74 a9 0a 3e 1c ef 5a be
       -0.007059042 -0.20255747 0.13541204 -0.21380275
0003e0 0a 43 16 be 33 60 53 be 86 e8 29 3e 50 70 3d be
       -0.14674011 -0.20642166 0.16592607 -0.18499875
0003f0 7f 2c 71 3d 3d ef f0 bc d5 57 17 be 49 ac 0b be
       0.058880325 -0.029410953 -0.14779599 -0.1363994

linear2.weight f4 [3, 256]
000000 fb 70 b3 bc 9d b4 7c 3d 0f 10 88 3c 7c db c3 3b
       -0.02190446 0.061695684 0.01660922 0.0059770923
000010 c1 b2 42 bc 3f 45 43 3d 9e 4f 1e 3d 94 ce 98 3c
       -0.011883439 0.04767346 0.038650148 0.018653192
000020 28 ba 2a 3d 44 1e 41 bd a5 dd 2e bd 5e fc c7 3c
       0.04168144 -0.047148004 -0.042691845 0.02441233
000030 d6 2d c3 3c 23 03 5d 3d e9 8a 0d bd 76 63 1a 3d
       0.023825567 0.05395807 -0.034556303 0.03769251
000040 f5 f9 67 3d e4 51 25 3d 2a 25 05 bd f5 85 84 3c
       0.056634862 0.0403613 -0.032506146 0.016177157
000050 24 d8 d8 3c 07 65 22 bd 84 e1 32 bd 1a ec 12 3d
       0.026470251 -0.03964713 -0.0436721 0.035869695
000060 07 76 56 3d d4 52 da bc 09 a5 56 bd 39 f2 41 bd
       0.052358653 -0.026650824 -0.052403484 -0.047350142
000070 29 5a 30 bd 72 2f 04 3d c1 a2 8e bd b9 0d c1 3c
       -0.043054733 0.03227181 -0.069646366 0.023566114
000080 73 9b 22 3c 27 db b1 3c 0f 47 39 3c bc 66 a5 3c
       0.009924757 0.021710945 0.011308446 0.02019059
000090 6c a3 86 bc f8 99 0c bb 1e ea 23 3d 31 69 00 3d
       -0.016435347 -0.0021454077 0.040018193 0.03135032
0000a0 72 11 0a 3d f8 f4 f4 3c f2 fa 30 bd a1 61 bf 3c
       0.033708043 0.029901966 -0.04320807 0.023361983
0000b0 fd 45 2c 3d f9 7b c0 3c e1 80 ad 3c 55 f8 89 3d
       0.042058934 0.023496615 0.021179618 0.06736819
0000c0 90 66 9a bc a3 43 1d bd 9c 12 98 bd 90 8b 51 bd
       -0.018847734 -0.03839458 -0.074254245 -0.051158488
0000d0 fd 6f aa 3c 4d b6 03 3d 6e 73 8e 3c b0 01 b8 3c
       0.020805353 0.032156277 0.017389026 0.022461742
0000e0 cd 33 b8 bc 47 5c 8b bd 39 6a 66 3c 11 cf 98 bc
       -0.022485638 -0.0680471 0.014063411 -0.018653424
0000f0 4a 69 fe 3c fc 05 b2 bb b1 d7 c6 bc ac 5b cc bc
       0.031056065 -0.0054328423 -0.024272772 -0.024946056
000100 31 46 21 3d 4c a3 1a bd 5e cd f4 bb 9a 70 8a bd
       0.03937358 -0.03775339 -0.0074707707 -0.06759758
000110 2a 4f 01 3d 18 85 ab bc 8b f1 95 3d 70 f0 57 bd
       0.031569637 -0.020937487 0.07321461 -0.052719533
000120 58 a0 00 bd 40 62 40 bd 6d 2b 70 bd dc be 35 3c
       -0.031402916 -0.0469687 -0.058635164 0.011092868
000130 6a 70 5b 3d 2c 50 c7 bc 8b 05 6f 3c 2b 18 fc bc
       0.053574003 -0.024330221 0.014588724 -0.030773243
000140 20 70 99 3b 48 b1 02 bd e8 cd 22 bd 88 c5 cb 3b
       0.004682556 -0.03190735 -0.03974715 0.006218616
000150 e9 ee 34 bc 95 26 9b bc b3 32 a0 bc 3e 09 43 3d
       -0.011043289 -0.018939296 -0.019555425 0.047616236
000160 f7 e6 75 ba 66 cb 06 3d dc ad 01 3c 3e c6 cf 3c
       -0.0009380425 0.03290882 0.007914986 0.025363084
000170 6c be 8a 3c 7e 6a 4b 3d c2 cb a4 bc 34 2e ba bc
       0.016936503 0.049662106 -0.02011669 -0.02272711
000180 de 48 1e bc 6c 40 f3 3c 9d ed 88 3c 85 e4 a9 3c
       -0.009660928 0.029693805 0.016714865 0.02073885
000190 0d a6 ed 3c 6f 68 b4 bc c4 39 cc 3c a8 b7 9c bd
       0.029009843 -0.022022454 0.024929889 -0.07652217
0001a0 80 d4 50 3d b4 bf 4e bd 7e 17 81 bd c8 d8 33 bb
       0.050983906 -0.05047579 -0.06303309 -0.0027442444
0001b0 b3 83 0d bd c0 84 94 3c 9c 7e 6a bd 88 25 0f 3d
       -0.034549426 0.018129706 -0.05724965 0.034947902
0001c0 72 ad ad bd 5c 3e 3e 3d c4 ae b4 bc a0 27 14 3d
       -0.08480348 0.04644619 -0.022055991 0.0361706
0001d0 4b fa 28 3d bd 41 de bc b3 b4 5e bd fb 10 26 bd
       0.041254323 -0.027130956 -0.054371547 -0.040543538
0001e0 c9 b8 71 39 a9 25 c4 3c b6 77 d4 bb 93 1b 62 bd
       0.00023052389 0.023943739 -0.006483997 -0.055202078
0001f0 6a 01 0b 3d 01 79 67 3c f5 52 9c 3d 4a 6d 44 3d
       0.033936895 0.014127971 0.0763301 0.04795579
000200 5a d4 fc bb a2 4a 84 3b 39 71 12 bc 2d e1 12 3d
       -0.007715744 0.0040372172 -0.008938127 0.035859276
000210 fd 1e 43 3d 40 7e 7a bd 2d e3 6d bb d6 c0 47 bd
       0.047636975 -0.061155558 -0.0036298737 -0.048767887
000220 70 47 32 bd 60 60 75 3d 08 cb b6 bc 68 b7 01 3d
       -0.04352516 0.059906363 -0.02231361 0.03166905
000230 6d 16 70 3b 6d ef 56 bc 72 b1 03 3b d2 c7 2e bc
       0.003663446 -0.013118607 0.002009478 -0.010667758
000240 ab 36 7c bd 01 bd 4f 3c 98 f2 37 3d a9 0a df bc
       -0.061575573 0.012679339 0.04490909 -0.027226763
000250 88 0a 88 3b a7 a7 13 bd 50 1b 54 3c 6e 2c 1b bd
       0.004151646 -0.036048558 0.012945965 -0.03788417
000260 ef 8d 56 3c 8d fd 80 bd d0 64 4a 3c 4a b0 50 bd
       0.013095363 -0.06298361 0.012353137 -0.050949372
000270 04 a9 88 bd 2b 60 5b 3c 02 39 2c bd 05 86 8d 3c
       -0.06672862 0.013389627 -0.042046554 0.01727582
000280 ce e8 25 bd f0 59 24 3d 56 a0 62 bc 42 15 55 3c
       -0.040505223 0.040124834 -0.013832172 0.013005557
000290 5b 4b 9c bb 8f 77 33 3d ef fa be 3b f5 b1 71 bc
       -0.0047697253 0.04381519 0.0058282535 -0.014751901
0002a0 ed d3 3c 3d b9 c4 87 3c 49 c2 94 bd b9 eb 6f bd
       0.046100546 0.016573297 -0.072636195 -0.058574412
0002b0 49 01 51 3d cd 76 61 3c de 38 1a 3d c2 63 ab bc
       0.051026616 0.0137612345 0.03765189 -0.020921592
0002c0 bc fd 92 3c f8 d7 34 bd 17 44 3e 3d a2 8e 2e 3d
       0.017943256 -0.044151276 0.046451654 0.042616494
0002d0 d4 f4 b3 3c 32 9b 8a bd a7 d1 cc 3c 12 21 92 bd
       0.02196733 -0.067678824 0.025002314 -0.07135214
0002e0 a9 11 9b bc ae 85 65 bc 4a 69 e8 3b 3b 47 c1 3c
       -0.01892932 -0.0140089225 0.0070926296 0.023593536
0002f0 1a 55 cb 3c 51 14 39 3c 1e 2c 24 3c e8 e1 1c bd
       0.024820853 0.011296348 0.010020284 -0.03830138
000300 74 a4 75 bd 54 f3 94 bd b3 88 58 bd 7f 36 36 bd
       -0.059971288 -0.07272974 -0.05286474 -0.044485565
000310 b4 59 49 bc 9c 06 14 3c 5f 12 dd 3b d2 ec 94 bd
       -0.012289453 0.009034779 0.006746575 -0.072717324
000320 c0 99 d7 3c 17 9b 91 3c ed 81 25 bd b2 28 5c 3c
       0.02631843 0.017774148 -0.04040711 0.013437437
000330 e6 f2 fb 3c 65 24 37 3d 58 b6 96 bd 29 3c ff bc
       0.030755471 0.044712443 -0.07358998 -0.031156616
000340 a1 80 0b 3c fd 9e 03 bd 17 43 8a bd ad 19 60 3c
       0.008514554 -0.032134045 -0.067510776 0.013677997
000350 bc 3a 08 bd 9d 38 63 bd 7b 79 fd bc b0 ae 8d bc
       -0.03325914 -0.055473913 -0.030941715 -0.017295212
000360 55 a9 5d bc 2b 16 ec 3c 94 79 74 3a 50 84 4e 3c
       -0.013529141 0.028819164 0.0009325978 0.012604788
000370 8d a7 31 3d fa 7d 4d 3d fb 71 26 3d 34 7a 23 3d
       0.04337268 0.05016897 0.040636044 0.039911464
000380 b4 e3 cd 39 f9 b5 0d bd a9 64 68 3d 2d 89 0c bc
       0.000392703 -0.03459737 0.056736622 -0.008577627
000390 98 da 7b bd a5 dd b2 3d d0 db 87 3d 8f cb 08 3d
       -0.061487764 0.087336816 0.06633723 0.033397254
0003a0 33 e8 74 bd 93 6e f8 bc 31 0c 34 bc f3 0b 0e 3c
       -0.059791755 -0.030326163 -0.010989235 0.008669841
0003b0 11 42 57 bd 31 17 14 bd ab 15 3a 3d df 67 8e bd
       -0.05255324 -0.03615493 0.04543082 -0.069534056
0003c0 43 2b e8 3c b7 c6 8c bd 23 28 c8 3b 0c 76 a0 bd
       0.028340941 -0.06873839 0.0061083003 -0.07835016
0003d0 e1 87 ff 3c 29 84 92 bc 4b ce 4e bc dc 1b 22 bc
       0.031192722 -0.017885284 -0.012622426 -0.0098943375
0003e0 2c ca 75 bd 26 ff e9 3c c1 ea 15 3d b4 ca 1b 3c
       -0.06000726 0.028564047 0.036600832 0.009508777
0003f0 8f e7 c6 bb 47 a7 07 3c d4 91 de 3c 3f ad 27 bd
       -0.0060700844 0.008279628 0.027169146 -0.040936705

linear2.bias f4 [3]
000000 e2 42 4d 3c 91 81 25 bc 0c ba 5f bd
       0.012528153 -0.010101692 -0.054620788
